…
ctive=0.0, flipud=0.0, fliplr=0.5, bgr=0.0, mosaic=1.0, mixup=0.0, copy_paste=0.1, copy_paste_mode=flip, auto_augment=randaugment, erasing=0.4, crop_fraction=1.0, cfg=None, tracker=botsort.yaml, save_dir=/kaggle/working/phase3_upgrade/parity_runs/cli_train_smoke2\n\u001b[34m\u001b[1mTensorBoard: \u001b[0mStart with 'tensorboard --logdir /kaggle/working/phase3_upgrade/parity_runs/cli_train_smoke2', view at http://localhost:6006/\n\n                   from  n    params  module                                       arguments                     \n  0                  -1  1       464  ultralytics.nn.modules.conv.Conv             [3, 16, 3, 2]                 \n  1                  -1  1      2368  ultralytics.nn.modules.conv.Conv             [16, 32, 3, 2, 1, 2]          \n  2                  -1  1      5792  ultralytics.nn.modules.block.DSC3k2          [32, 64, 1, False, 0.25]      \n  3                  -1  1      9344  ultralytics.nn.modules.conv.Conv             [64, 64, 3, 2, 1, 4]          \n  4                  -1  1     20800  ultralytics.nn.modules.block.DSC3k2          [64, 128, 1, False, 0.25]     \n  5                  -1  1     17792  ultralytics.nn.modules.conv.DSConv           [128, 128, 3, 2]              \n  6                  -1  2     95744  ultralytics.nn.modules.block.A2C2f           [128, 128, 1, True, 4, False, 2.0, 0.5, 1, True, 'area']\n  7                  -1  1     34432  ultralytics.nn.modules.conv.DSConv           [128, 256, 3, 2]              \n  8                  -1  2    371712  ultralytics.nn.modules.block.A2C2f           [256, 256, 1, True, 1, False, 2.0, 0.5, 1, True, 'area']\n  9           [4, 6, 8]  1    273536  ultralytics.nn.modules.block.HyperACE        [128, 128, 1, 4, True, True, 0.5, 1, 'both', True, 'adaptive', 'node', 0, False, 0.0]\n 10                  -1  1         0  torch.nn.modules.upsampling.Upsample         [None, 2, 'nearest']          \n 11                   9  1     33280  ultralytics.nn.modules.block.DownsampleConv  [128]                         \n 12              [6, 9]  1         1  ultralytics.nn.modules.block.FullPAD_Tunnel  []                            \n 13             [4, 10]  1         1  ultralytics.nn.modules.block.FullPAD_Tunnel  []                            \n 14             [8, 11]  1         1  ultralytics.nn.modules.block.FullPAD_Tunnel  []                            \n 15                  -1  1         0  torch.nn.modules.upsampling.Upsample         [None, 2, 'nearest']          \n 16            [-1, 12]  1         0  ultralytics.nn.modules.conv.Concat           [1]                           \n 17                  -1  1    115328  ultralytics.nn.modules.block.DSC3k2          [384, 128, 1, True]           \n 18             [-1, 9]  1         1  ultralytics.nn.modules.block.FullPAD_Tunnel  []                            \n 19                  17  1         0  torch.nn.modules.upsampling.Upsample         [None, 2, 'nearest']          \n 20            [-1, 13]  1         0  ultralytics.nn.modules.conv.Concat           [1]                           \n 21                  -1  1     35136  ultralytics.nn.modules.block.DSC3k2          [256, 64, 1, True]            \n 22                  10  1      8320  ultralytics.nn.modules.conv.Conv             [128, 64, 1, 1]               \n 23            [21, 22]  1         1  ultralytics.nn.modules.block.FullPAD_Tunnel  []                            \n 24                  -1  1     36992  ultralytics.nn.modules.conv.Conv             [64, 64, 3, 2]                \n 25            [-1, 18]  1         0  ultralytics.nn.modules.conv.Concat           [1]                           \n 26                  -1  1     90752  ultralytics.nn.modules.block.DSC3k2          [192, 128, 1, True]           \n 27             [-1, 9]  1         1  ultralytics.nn.modules.block.FullPAD_Tunnel  []                            \n 28                  26  1    147712  ultralytics.nn.modules.conv.Conv             [128, 128, 3, 2]              \n 29            [-1, 14]  1         0  ultralytics.nn.modules.conv.Concat           [1]                           \n 30                  -1  1    345344  ultralytics.nn.modules.block.DSC3k2          [384, 256, 1, True]           \n 31            [-1, 11]  1         1  ultralytics.nn.modules.block.FullPAD_Tunnel  []                            \n 32        [23, 27, 31]  1    464912  ultralytics.nn.modules.head.Detect           [80, [64, 128, 256]]          \nYOLOv13n summary: 540 layers, 2,109,767 parameters, 2,109,751 gradients, 6.0 GFLOPs\n\nFreezing layer 'model.32.dfl.conv.weight'\n\u001b[34m\u001b[1mAMP: \u001b[0mrunning Automatic Mixed Precision (AMP) checks...\n\u001b[34m\u001b[1mAMP: \u001b[0mchecks skipped \u26a0\ufe0f. Unable to load YOLO11n for AMP checks due to possible Ultralytics package modifications. Sett
…
